=====================================================================================================================================================================
Layer (type:depth-idx)                   Input Shape               Output Shape              Param #                   Param %                   Mult-Adds
=====================================================================================================================================================================
AcousticPredictor                        [365, 107, 240, 240]      [365, 1, 240, 240]        --                             --                   --
├─Sequential: 1-1                        [365, 107, 240, 240]      [365, 1, 240, 240]        --                             --                   --
│    └─ConvBlock: 2-1                    [365, 107, 240, 240]      [365, 96, 240, 240]       --                             --                   --
│    │    └─Sequential: 3-1              [365, 107, 240, 240]      [365, 96, 240, 240]       92,736                     54.06%                   1,945,645,126,080
│    └─ConvBlock: 2-2                    [365, 96, 240, 240]       [365, 64, 240, 240]       --                             --                   --
│    │    └─Sequential: 3-2              [365, 96, 240, 240]       [365, 64, 240, 240]       55,488                     32.34%                   1,163,888,686,720
│    └─ConvBlock: 2-3                    [365, 64, 240, 240]       [365, 32, 240, 240]       --                             --                   --
│    │    └─Sequential: 3-3              [365, 64, 240, 240]       [365, 32, 240, 240]       18,528                     10.80%                   388,187,159,360
│    └─ConvBlock: 2-4                    [365, 32, 240, 240]       [365, 16, 240, 240]       --                             --                   --
│    │    └─Sequential: 3-4              [365, 32, 240, 240]       [365, 16, 240, 240]       4,656                       2.71%                   97,214,987,680
│    └─ConvBlock: 2-5                    [365, 16, 240, 240]       [365, 1, 240, 240]        --                             --                   --
│    │    └─Sequential: 3-5              [365, 16, 240, 240]       [365, 1, 240, 240]        147                         0.09%                   3,048,480,730
=====================================================================================================================================================================
Total params: 171,555
Trainable params: 171,555
Non-trainable params: 0
Total mult-adds (Units.TERABYTES): 3.60
=====================================================================================================================================================================
…
