=====================================================================================================================================================================
Layer (type:depth-idx)                   Input Shape               Output Shape              Param #                   Param %                   Mult-Adds
=====================================================================================================================================================================
AutoEncoder                              [365, 107, 240, 240]      [365, 107, 240, 240]      --                             --                   --
├─Sequential: 1-1                        [365, 107, 240, 240]      [365, 4, 240, 240]        --                             --                   --
│    └─Conv2d: 2-1                       [365, 107, 240, 240]      [365, 64, 240, 240]       6,912                      35.85%                   145,317,888,000
│    └─ReLU: 2-2                         [365, 64, 240, 240]       [365, 64, 240, 240]       --                             --                   --
│    └─Conv2d: 2-3                       [365, 64, 240, 240]       [365, 32, 240, 240]       2,080                      10.79%                   43,729,920,000
│    └─ReLU: 2-4                         [365, 32, 240, 240]       [365, 32, 240, 240]       --                             --                   --
│    └─Conv2d: 2-5                       [365, 32, 240, 240]       [365, 16, 240, 240]       528                         2.74%                   11,100,672,000
│    └─ReLU: 2-6                         [365, 16, 240, 240]       [365, 16, 240, 240]       --                             --                   --
│    └─Conv2d: 2-7                       [365, 16, 240, 240]       [365, 4, 240, 240]        68                          0.35%                   1,429,632,000
│    └─ReLU: 2-8                         [365, 4, 240, 240]        [365, 4, 240, 240]        --                             --                   --
├─Sequential: 1-2                        [365, 4, 240, 240]        [365, 107, 240, 240]      --                             --                   --
│    └─ConvTranspose2d: 2-9              [365, 4, 240, 240]        [365, 16, 240, 240]       80                          0.41%                   1,681,920,000
│    └─ReLU: 2-10                        [365, 16, 240, 240]       [365, 16, 240, 240]       --                             --                   --
│    └─ConvTranspose2d: 2-11             [365, 16, 240, 240]       [365, 32, 240, 240]       544                         2.82%                   11,437,056,000
│    └─ReLU: 2-12                        [365, 32, 240, 240]       [365, 32, 240, 240]       --                             --                   --
│    └─ConvTranspose2d: 2-13             [365, 32, 240, 240]       [365, 64, 240, 240]       2,112                      10.95%                   44,402,688,000
│    └─ReLU: 2-14                        [365, 64, 240, 240]       [365, 64, 240, 240]       --                             --                   --
│    └─ConvTranspose2d: 2-15             [365, 64, 240, 240]       [365, 107, 240, 240]      6,955                      36.08%                   146,221,920,000
│    └─Sigmoid: 2-16                     [365, 107, 240, 240]      [365, 107, 240, 240]      --                             --                   --
=====================================================================================================================================================================
Total params: 19,279
Trainable params: 19,279
Non-trainable params: 0
Total mult-adds (Units.GIGABYTES): 405.32
=====================================================================================================================================================================
…
