=====================================================================================================================================================================
Layer (type:depth-idx)                   Input Shape               Output Shape              Param #                   Param %                   Mult-Adds
=====================================================================================================================================================================
AutoEncoder                              [365, 107, 240, 240]      [365, 107, 240, 240]      171,702                    59.59%                   --
├─Sequential: 1-1                        [365, 107, 240, 240]      [365, 16, 60, 60]         --                             --                   --
│    └─Conv2d: 2-1                       [365, 107, 240, 240]      [365, 64, 240, 240]       61,696                     21.41%                   1,297,096,704,000
│    └─ReLU: 2-2                         [365, 64, 240, 240]       [365, 64, 240, 240]       --                             --                   --
│    └─MaxPool2d: 2-3                    [365, 64, 240, 240]       [365, 64, 120, 120]       --                             --                   --
│    └─Conv2d: 2-4                       [365, 64, 120, 120]       [365, 32, 120, 120]       18,464                      6.41%                   97,046,784,000
│    └─ReLU: 2-5                         [365, 32, 120, 120]       [365, 32, 120, 120]       --                             --                   --
│    └─MaxPool2d: 2-6                    [365, 32, 120, 120]       [365, 32, 60, 60]         --                             --                   --
│    └─Conv2d: 2-7                       [365, 32, 60, 60]         [365, 16, 60, 60]         4,624                       1.60%                   6,075,936,000
│    └─ReLU: 2-8                         [365, 16, 60, 60]         [365, 16, 60, 60]         --                             --                   --
├─Sequential: 1-2                        [365, 16, 60, 60]         [365, 107, 240, 240]      --                             --                   --
│    └─ConvTranspose2d: 2-9              [365, 16, 60, 60]         [365, 64, 120, 120]       4,160                       1.44%                   21,864,960,000
│    └─ReLU: 2-10                        [365, 64, 120, 120]       [365, 64, 120, 120]       --                             --                   --
│    └─ConvTranspose2d: 2-11             [365, 64, 120, 120]       [365, 107, 240, 240]      27,499                      9.54%                   578,138,976,000
│    └─Sigmoid: 2-12                     [365, 107, 240, 240]      [365, 107, 240, 240]      --                             --                   --
=====================================================================================================================================================================
Total params: 288,145
Trainable params: 288,145
Non-trainable params: 0
Total mult-adds (Units.TERABYTES): 2.00
=====================================================================================================================================================================
…
