=====================================================================================================================================================================
Layer (type:depth-idx)                   Input Shape               Output Shape              Param #                   Param %                   Mult-Adds
=====================================================================================================================================================================
AcousticPredictor                        [4, 107, 240, 240]        [4, 1, 240, 240]          --                             --                   --
├─Sequential: 1-1                        [4, 1, 107, 240, 240]     [4, 1, 9, 240, 240]       --                             --                   --
│    └─Conv3d: 2-1                       [4, 1, 107, 240, 240]     [4, 1, 100, 240, 240]     9                           5.77%                   207,360,000
│    └─Conv3d: 2-2                       [4, 1, 100, 240, 240]     [4, 1, 93, 240, 240]      9                           5.77%                   192,844,800
│    └─Conv3d: 2-3                       [4, 1, 93, 240, 240]      [4, 1, 86, 240, 240]      9                           5.77%                   178,329,600
│    └─Conv3d: 2-4                       [4, 1, 86, 240, 240]      [4, 1, 79, 240, 240]      9                           5.77%                   163,814,400
│    └─Conv3d: 2-5                       [4, 1, 79, 240, 240]      [4, 1, 72, 240, 240]      9                           5.77%                   149,299,200
│    └─Conv3d: 2-6                       [4, 1, 72, 240, 240]      [4, 1, 65, 240, 240]      9                           5.77%                   134,784,000
│    └─Conv3d: 2-7                       [4, 1, 65, 240, 240]      [4, 1, 58, 240, 240]      9                           5.77%                   120,268,800
│    └─Conv3d: 2-8                       [4, 1, 58, 240, 240]      [4, 1, 51, 240, 240]      9                           5.77%                   105,753,600
│    └─Conv3d: 2-9                       [4, 1, 51, 240, 240]      [4, 1, 44, 240, 240]      9                           5.77%                   91,238,400
│    └─Conv3d: 2-10                      [4, 1, 44, 240, 240]      [4, 1, 37, 240, 240]      9                           5.77%                   76,723,200
│    └─Conv3d: 2-11                      [4, 1, 37, 240, 240]      [4, 1, 30, 240, 240]      9                           5.77%                   62,208,000
│    └─Conv3d: 2-12                      [4, 1, 30, 240, 240]      [4, 1, 23, 240, 240]      9                           5.77%                   47,692,800
│    └─Conv3d: 2-13                      [4, 1, 23, 240, 240]      [4, 1, 16, 240, 240]      9                           5.77%                   33,177,600
│    └─Conv3d: 2-14                      [4, 1, 16, 240, 240]      [4, 1, 9, 240, 240]       9                           5.77%                   18,662,400
├─Sequential: 1-2                        [4, 240, 240, 9]          [4, 240, 240, 1]          --                             --                   --
│    └─Linear: 2-15                      [4, 240, 240, 9]          [4, 240, 240, 1]          10                          6.41%                   40
│    └─Sigmoid: 2-16                     [4, 240, 240, 1]          [4, 240, 240, 1]          --                             --                   --
├─Linear: 1-3                            [4, 240, 240, 9]          [4, 240, 240, 2]          20                         12.82%                   80
=====================================================================================================================================================================
Total params: 156
Trainable params: 156
Non-trainable params: 0
Total mult-adds (Units.GIGABYTES): 1.58
=====================================================================================================================================================================
…
