=====================================================================================================================================================================
Layer (type:depth-idx)                   Input Shape               Output Shape              Param #                   Param %                   Mult-Adds
=====================================================================================================================================================================
AutoEncoder                              [365, 107, 240, 240]      [365, 107, 240, 240]      171,555                    89.84%                   --
├─Sequential: 1-1                        [365, 107, 240, 240]      [365, 20, 240, 240]       --                             --                   --
│    └─Conv2d: 2-1                       [365, 107, 240, 240]      [365, 64, 240, 240]       6,912                       3.62%                   145,317,888,000
│    └─ReLU: 2-2                         [365, 64, 240, 240]       [365, 64, 240, 240]       --                             --                   --
│    └─Conv2d: 2-3                       [365, 64, 240, 240]       [365, 32, 240, 240]       2,080                       1.09%                   43,729,920,000
│    └─ReLU: 2-4                         [365, 32, 240, 240]       [365, 32, 240, 240]       --                             --                   --
│    └─Conv2d: 2-5                       [365, 32, 240, 240]       [365, 20, 240, 240]       660                         0.35%                   13,875,840,000
│    └─ReLU: 2-6                         [365, 20, 240, 240]       [365, 20, 240, 240]       --                             --                   --
├─Sequential: 1-2                        [365, 20, 240, 240]       [365, 107, 240, 240]      --                             --                   --
│    └─ConvTranspose2d: 2-7              [365, 20, 240, 240]       [365, 32, 240, 240]       672                         0.35%                   14,128,128,000
│    └─ReLU: 2-8                         [365, 32, 240, 240]       [365, 32, 240, 240]       --                             --                   --
│    └─ConvTranspose2d: 2-9              [365, 32, 240, 240]       [365, 64, 240, 240]       2,112                       1.11%                   44,402,688,000
│    └─ReLU: 2-10                        [365, 64, 240, 240]       [365, 64, 240, 240]       --                             --                   --
│    └─ConvTranspose2d: 2-11             [365, 64, 240, 240]       [365, 107, 240, 240]      6,955                       3.64%                   146,221,920,000
│    └─ReLU: 2-12                        [365, 107, 240, 240]      [365, 107, 240, 240]      --                             --                   --
=====================================================================================================================================================================
Total params: 190,946
Trainable params: 190,946
Non-trainable params: 0
Total mult-adds (Units.GIGABYTES): 407.68
=====================================================================================================================================================================
…
