=====================================================================================================================================================================
Layer (type:depth-idx)                   Input Shape               Output Shape              Param #                   Param %                   Mult-Adds
=====================================================================================================================================================================
AutoEncoder                              [365, 107, 240, 240]      [365, 107, 240, 240]      171,555                    90.87%                   --
├─Sequential: 1-1                        [365, 107, 240, 240]      [365, 4, 60, 60]          --                             --                   --
│    └─Conv2d: 2-1                       [365, 107, 240, 240]      [365, 60, 240, 240]       6,480                       3.43%                   136,235,520,000
│    └─AvgPool2d: 2-2                    [365, 60, 240, 240]       [365, 60, 120, 120]       --                             --                   --
│    └─Conv2d: 2-3                       [365, 60, 120, 120]       [365, 32, 120, 120]       1,952                       1.03%                   10,259,712,000
│    └─AvgPool2d: 2-4                    [365, 32, 120, 120]       [365, 32, 60, 60]         --                             --                   --
│    └─Conv2d: 2-5                       [365, 32, 60, 60]         [365, 4, 60, 60]          132                         0.07%                   173,448,000
│    └─ReLU: 2-6                         [365, 4, 60, 60]          [365, 4, 60, 60]          --                             --                   --
├─Sequential: 1-2                        [365, 4, 60, 60]          [365, 107, 240, 240]      --                             --                   --
│    └─ConvTranspose2d: 2-7              [365, 4, 60, 60]          [365, 32, 60, 60]         160                         0.08%                   210,240,000
│    └─Upsample: 2-8                     [365, 32, 60, 60]         [365, 32, 120, 120]       --                             --                   --
│    └─ConvTranspose2d: 2-9              [365, 32, 120, 120]       [365, 60, 120, 120]       1,980                       1.05%                   10,406,880,000
│    └─Upsample: 2-10                    [365, 60, 120, 120]       [365, 60, 240, 240]       --                             --                   --
│    └─ConvTranspose2d: 2-11             [365, 60, 240, 240]       [365, 107, 240, 240]      6,527                       3.46%                   137,223,648,000
│    └─ReLU: 2-12                        [365, 107, 240, 240]      [365, 107, 240, 240]      --                             --                   --
=====================================================================================================================================================================
Total params: 188,786
Trainable params: 188,786
Non-trainable params: 0
Total mult-adds (Units.GIGABYTES): 294.51
=====================================================================================================================================================================
…
