=====================================================================================================================================================================
Layer (type:depth-idx)                   Input Shape               Output Shape              Param #                   Param %                   Mult-Adds
=====================================================================================================================================================================
AcousticPredictor                        [365, 107, 240, 240]      [365, 240, 240]           --                             --                   --
├─Sequential: 1-1                        [365, 1, 107, 240, 240]   [365, 1, 1, 240, 240]     --                             --                   --
│    └─Conv3d: 2-1                       [365, 1, 107, 240, 240]   [365, 1, 103, 240, 240]   6                           3.75%                   12,992,832,000
│    └─Conv3d: 2-2                       [365, 1, 103, 240, 240]   [365, 1, 99, 240, 240]    6                           3.75%                   12,488,256,000
│    └─Conv3d: 2-3                       [365, 1, 99, 240, 240]    [365, 1, 95, 240, 240]    6                           3.75%                   11,983,680,000
│    └─Conv3d: 2-4                       [365, 1, 95, 240, 240]    [365, 1, 91, 240, 240]    6                           3.75%                   11,479,104,000
│    └─Conv3d: 2-5                       [365, 1, 91, 240, 240]    [365, 1, 87, 240, 240]    6                           3.75%                   10,974,528,000
│    └─Conv3d: 2-6                       [365, 1, 87, 240, 240]    [365, 1, 83, 240, 240]    6                           3.75%                   10,469,952,000
│    └─Conv3d: 2-7                       [365, 1, 83, 240, 240]    [365, 1, 79, 240, 240]    6                           3.75%                   9,965,376,000
│    └─Conv3d: 2-8                       [365, 1, 79, 240, 240]    [365, 1, 75, 240, 240]    6                           3.75%                   9,460,800,000
│    └─Conv3d: 2-9                       [365, 1, 75, 240, 240]    [365, 1, 71, 240, 240]    6                           3.75%                   8,956,224,000
│    └─Conv3d: 2-10                      [365, 1, 71, 240, 240]    [365, 1, 67, 240, 240]    6                           3.75%                   8,451,648,000
│    └─Conv3d: 2-11                      [365, 1, 67, 240, 240]    [365, 1, 63, 240, 240]    6                           3.75%                   7,947,072,000
│    └─Conv3d: 2-12                      [365, 1, 63, 240, 240]    [365, 1, 59, 240, 240]    6                           3.75%                   7,442,496,000
│    └─Conv3d: 2-13                      [365, 1, 59, 240, 240]    [365, 1, 55, 240, 240]    6                           3.75%                   6,937,920,000
│    └─Conv3d: 2-14                      [365, 1, 55, 240, 240]    [365, 1, 51, 240, 240]    6                           3.75%                   6,433,344,000
│    └─Conv3d: 2-15                      [365, 1, 51, 240, 240]    [365, 1, 47, 240, 240]    6                           3.75%                   5,928,768,000
│    └─Conv3d: 2-16                      [365, 1, 47, 240, 240]    [365, 1, 43, 240, 240]    6                           3.75%                   5,424,192,000
│    └─Conv3d: 2-17                      [365, 1, 43, 240, 240]    [365, 1, 39, 240, 240]    6                           3.75%                   4,919,616,000
│    └─Conv3d: 2-18                      [365, 1, 39, 240, 240]    [365, 1, 35, 240, 240]    6                           3.75%                   4,415,040,000
│    └─Conv3d: 2-19                      [365, 1, 35, 240, 240]    [365, 1, 31, 240, 240]    6                           3.75%                   3,910,464,000
│    └─Conv3d: 2-20                      [365, 1, 31, 240, 240]    [365, 1, 27, 240, 240]    6                           3.75%                   3,405,888,000
│    └─Conv3d: 2-21                      [365, 1, 27, 240, 240]    [365, 1, 23, 240, 240]    6                           3.75%                   2,901,312,000
│    └─Conv3d: 2-22                      [365, 1, 23, 240, 240]    [365, 1, 19, 240, 240]    6                           3.75%                   2,396,736,000
│    └─Conv3d: 2-23                      [365, 1, 19, 240, 240]    [365, 1, 15, 240, 240]    6                           3.75%                   1,892,160,000
│    └─Conv3d: 2-24                      [365, 1, 15, 240, 240]    [365, 1, 11, 240, 240]    6                           3.75%                   1,387,584,000
│    └─Conv3d: 2-25                      [365, 1, 11, 240, 240]    [365, 1, 7, 240, 240]     6                           3.75%                   883,008,000
│    └─Conv3d: 2-26                      [365, 1, 7, 240, 240]     [365, 1, 3, 240, 240]     6                           3.75%                   378,432,000
│    └─Conv3d: 2-27                      [365, 1, 3, 240, 240]     [365, 1, 1, 240, 240]     4                           2.50%                   84,096,000
│    └─ReLU: 2-28                        [365, 1, 1, 240, 240]     [365, 1, 1, 240, 240]     --                             --                   --
=====================================================================================================================================================================
Total params: 160
Trainable params: 160
Non-trainable params: 0
Total mult-adds (Units.GIGABYTES): 173.91
=====================================================================================================================================================================
…
