=====================================================================================================================================================================
Layer (type:depth-idx)                   Input Shape               Output Shape              Param #                   Param %                   Mult-Adds
=====================================================================================================================================================================
AcousticPredictor                        [4, 107, 240, 240]        [4, 1, 240, 240]          --                             --                   --
├─Sequential: 1-1                        [4, 1, 107, 240, 240]     [4, 1, 1, 240, 240]       --                             --                   --
│    └─Conv3d: 2-1                       [4, 1, 107, 240, 240]     [4, 1, 100, 240, 240]     9                           6.52%                   207,360,000
│    └─Conv3d: 2-2                       [4, 1, 100, 240, 240]     [4, 1, 93, 240, 240]      9                           6.52%                   192,844,800
│    └─Conv3d: 2-3                       [4, 1, 93, 240, 240]      [4, 1, 86, 240, 240]      9                           6.52%                   178,329,600
│    └─Conv3d: 2-4                       [4, 1, 86, 240, 240]      [4, 1, 79, 240, 240]      9                           6.52%                   163,814,400
│    └─Conv3d: 2-5                       [4, 1, 79, 240, 240]      [4, 1, 72, 240, 240]      9                           6.52%                   149,299,200
│    └─Conv3d: 2-6                       [4, 1, 72, 240, 240]      [4, 1, 65, 240, 240]      9                           6.52%                   134,784,000
│    └─Conv3d: 2-7                       [4, 1, 65, 240, 240]      [4, 1, 58, 240, 240]      9                           6.52%                   120,268,800
│    └─Conv3d: 2-8                       [4, 1, 58, 240, 240]      [4, 1, 51, 240, 240]      9                           6.52%                   105,753,600
│    └─Conv3d: 2-9                       [4, 1, 51, 240, 240]      [4, 1, 44, 240, 240]      9                           6.52%                   91,238,400
│    └─Conv3d: 2-10                      [4, 1, 44, 240, 240]      [4, 1, 37, 240, 240]      9                           6.52%                   76,723,200
│    └─Conv3d: 2-11                      [4, 1, 37, 240, 240]      [4, 1, 30, 240, 240]      9                           6.52%                   62,208,000
│    └─Conv3d: 2-12                      [4, 1, 30, 240, 240]      [4, 1, 23, 240, 240]      9                           6.52%                   47,692,800
│    └─Conv3d: 2-13                      [4, 1, 23, 240, 240]      [4, 1, 16, 240, 240]      9                           6.52%                   33,177,600
│    └─Conv3d: 2-14                      [4, 1, 16, 240, 240]      [4, 1, 9, 240, 240]       9                           6.52%                   18,662,400
│    └─Conv3d: 2-15                      [4, 1, 9, 240, 240]       [4, 1, 2, 240, 240]       9                           6.52%                   4,147,200
│    └─Conv3d: 2-16                      [4, 1, 2, 240, 240]       [4, 1, 1, 240, 240]       3                           2.17%                   691,200
│    └─Sigmoid: 2-17                     [4, 1, 1, 240, 240]       [4, 1, 1, 240, 240]       --                             --                   --
=====================================================================================================================================================================
Total params: 138
Trainable params: 138
Non-trainable params: 0
Total mult-adds (Units.GIGABYTES): 1.59
=====================================================================================================================================================================
…
