=====================================================================================================================================================================
Layer (type:depth-idx)                   Input Shape               Output Shape              Param #                   Param %                   Mult-Adds
=====================================================================================================================================================================
AcousticPredictor                        [365, 107, 240, 240]      [365, 2, 240, 240]        --                             --                   --
├─ConvBlock: 1-1                         [365, 107, 240, 240]      [365, 96, 240, 240]       --                             --                   --
│    └─Sequential: 2-1                   [365, 107, 240, 240]      [365, 96, 240, 240]       --                             --                   --
│    │    └─Conv2d: 3-1                  [365, 107, 240, 240]      [365, 96, 240, 240]       92,544                     53.90%                   1,945,645,056,000
│    │    └─BatchNorm2d: 3-2             [365, 96, 240, 240]       [365, 96, 240, 240]       192                         0.11%                   70,080
│    │    └─ReLU: 3-3                    [365, 96, 240, 240]       [365, 96, 240, 240]       --                             --                   --
├─ConvBlock: 1-2                         [365, 96, 240, 240]       [365, 64, 240, 240]       --                             --                   --
│    └─Sequential: 2-2                   [365, 96, 240, 240]       [365, 64, 240, 240]       --                             --                   --
│    │    └─Conv2d: 3-4                  [365, 96, 240, 240]       [365, 64, 240, 240]       55,360                     32.24%                   1,163,888,640,000
│    │    └─BatchNorm2d: 3-5             [365, 64, 240, 240]       [365, 64, 240, 240]       128                         0.07%                   46,720
│    │    └─ReLU: 3-6                    [365, 64, 240, 240]       [365, 64, 240, 240]       --                             --                   --
├─ConvBlock: 1-3                         [365, 64, 240, 240]       [365, 32, 240, 240]       --                             --                   --
│    └─Sequential: 2-3                   [365, 64, 240, 240]       [365, 32, 240, 240]       --                             --                   --
│    │    └─Conv2d: 3-7                  [365, 64, 240, 240]       [365, 32, 240, 240]       18,464                     10.75%                   388,187,136,000
│    │    └─BatchNorm2d: 3-8             [365, 32, 240, 240]       [365, 32, 240, 240]       64                          0.04%                   23,360
│    │    └─ReLU: 3-9                    [365, 32, 240, 240]       [365, 32, 240, 240]       --                             --                   --
├─ConvBlock: 1-4                         [365, 32, 240, 240]       [365, 16, 240, 240]       --                             --                   --
│    └─Sequential: 2-4                   [365, 32, 240, 240]       [365, 16, 240, 240]       --                             --                   --
│    │    └─Conv2d: 3-10                 [365, 32, 240, 240]       [365, 16, 240, 240]       4,624                       2.69%                   97,214,976,000
│    │    └─BatchNorm2d: 3-11            [365, 16, 240, 240]       [365, 16, 240, 240]       32                          0.02%                   11,680
│    │    └─ReLU: 3-12                   [365, 16, 240, 240]       [365, 16, 240, 240]       --                             --                   --
├─ConvBlock: 1-5                         [365, 16, 240, 240]       [365, 2, 240, 240]        --                             --                   --
│    └─Sequential: 2-5                   [365, 16, 240, 240]       [365, 2, 240, 240]        --                             --                   --
│    │    └─Conv2d: 3-13                 [365, 16, 240, 240]       [365, 2, 240, 240]        290                         0.17%                   6,096,960,000
│    │    └─BatchNorm2d: 3-14            [365, 2, 240, 240]        [365, 2, 240, 240]        4                           0.00%                   1,460
│    │    └─ReLU: 3-15                   [365, 2, 240, 240]        [365, 2, 240, 240]        --                             --                   --
=====================================================================================================================================================================
Total params: 171,702
Trainable params: 171,702
Non-trainable params: 0
Total mult-adds (Units.TERABYTES): 3.60
=====================================================================================================================================================================
…
