=====================================================================================================================================================================
Layer (type:depth-idx)                   Input Shape               Output Shape              Param #                   Param %                   Mult-Adds
=====================================================================================================================================================================
AcousticPredictor                        [365, 107, 240, 240]      [365, 1, 1, 240, 240]     --                             --                   --
├─Sequential: 1-1                        [365, 1, 107, 240, 240]   [365, 1, 1, 240, 240]     --                             --                   --
│    └─Conv3d: 2-1                       [365, 1, 107, 240, 240]   [365, 1, 100, 240, 240]   9                           6.52%                   18,921,600,000
│    └─Conv3d: 2-2                       [365, 1, 100, 240, 240]   [365, 1, 93, 240, 240]    9                           6.52%                   17,597,088,000
│    └─Conv3d: 2-3                       [365, 1, 93, 240, 240]    [365, 1, 86, 240, 240]    9                           6.52%                   16,272,576,000
│    └─Conv3d: 2-4                       [365, 1, 86, 240, 240]    [365, 1, 79, 240, 240]    9                           6.52%                   14,948,064,000
│    └─Conv3d: 2-5                       [365, 1, 79, 240, 240]    [365, 1, 72, 240, 240]    9                           6.52%                   13,623,552,000
│    └─Conv3d: 2-6                       [365, 1, 72, 240, 240]    [365, 1, 65, 240, 240]    9                           6.52%                   12,299,040,000
│    └─Conv3d: 2-7                       [365, 1, 65, 240, 240]    [365, 1, 58, 240, 240]    9                           6.52%                   10,974,528,000
│    └─Conv3d: 2-8                       [365, 1, 58, 240, 240]    [365, 1, 51, 240, 240]    9                           6.52%                   9,650,016,000
│    └─Conv3d: 2-9                       [365, 1, 51, 240, 240]    [365, 1, 44, 240, 240]    9                           6.52%                   8,325,504,000
│    └─Conv3d: 2-10                      [365, 1, 44, 240, 240]    [365, 1, 37, 240, 240]    9                           6.52%                   7,000,992,000
│    └─Conv3d: 2-11                      [365, 1, 37, 240, 240]    [365, 1, 30, 240, 240]    9                           6.52%                   5,676,480,000
│    └─Conv3d: 2-12                      [365, 1, 30, 240, 240]    [365, 1, 23, 240, 240]    9                           6.52%                   4,351,968,000
│    └─Conv3d: 2-13                      [365, 1, 23, 240, 240]    [365, 1, 16, 240, 240]    9                           6.52%                   3,027,456,000
│    └─Conv3d: 2-14                      [365, 1, 16, 240, 240]    [365, 1, 9, 240, 240]     9                           6.52%                   1,702,944,000
│    └─Conv3d: 2-15                      [365, 1, 9, 240, 240]     [365, 1, 2, 240, 240]     9                           6.52%                   378,432,000
│    └─Conv3d: 2-16                      [365, 1, 2, 240, 240]     [365, 1, 1, 240, 240]     3                           2.17%                   63,072,000
│    └─ReLU: 2-17                        [365, 1, 1, 240, 240]     [365, 1, 1, 240, 240]     --                             --                   --
=====================================================================================================================================================================
Total params: 138
Trainable params: 138
Non-trainable params: 0
Total mult-adds (Units.GIGABYTES): 144.81
=====================================================================================================================================================================
…
