…
======================================================================================================================================================================
Layer (type:depth-idx)                                  Input Shape               Output Shape              Param #                   Param %                   Mult-Adds
====================================================================================================================================================================================
ECS_classification                                      [4, 107, 240, 240]        [4, 2, 109, 262, 262]     --                             --                   --
├─UNet: 1-1                                             [4, 107, 240, 240]        [4, 2, 109, 262, 262]     --                             --                   --
│    └─ModuleList: 2-1                                  --                        --                        --                             --                   --
│    │    └─DoubleConv: 3-1                             [4, 3, 107, 240, 240]     [4, 64, 107, 244, 244]    13,120                      0.09%                   330,788,203,520
│    │    └─Down: 3-2                                   [4, 64, 107, 244, 244]    [4, 128, 53, 126, 126]    74,240                      0.50%                   246,390,214,656
│    │    └─Down: 3-3                                   [4, 128, 53, 126, 126]    [4, 256, 26, 67, 67]      295,936                     1.97%                   135,214,407,680
│    │    └─Down: 3-4                                   [4, 256, 26, 67, 67]      [4, 512, 13, 37, 37]      1,181,696                   7.88%                   81,101,451,264
│    │    └─Down: 3-5                                   [4, 512, 13, 37, 37]      [4, 1024, 6, 22, 22]      4,722,688                  31.49%                   51,662,012,416
│    │    └─Up: 3-6                                     [4, 1024, 6, 22, 22]      [4, 512, 13, 41, 41]      6,556,160                  43.72%                   583,045,672,960
│    │    └─Up: 3-7                                     [4, 512, 13, 41, 41]      [4, 256, 26, 71, 71]      1,639,680                  10.93%                   1,031,478,034,432
│    │    └─Up: 3-8                                     [4, 256, 26, 71, 71]      [4, 128, 53, 130, 130]    410,240                     2.74%                   1,618,453,024,768
│    │    └─Up: 3-9                                     [4, 128, 53, 130, 130]    [4, 64, 107, 248, 248]    102,720                     0.68%                   2,843,600,826,368
│    │    └─Conv3d: 3-10                                [4, 64, 107, 248, 248]    [4, 2, 109, 262, 262]     130                         0.00%                   3,890,741,920
====================================================================================================================================================================================
Total params: 14,996,610
Trainable params: 14,996,610
Non-trainable params: 0
Total mult-adds (Units.TERABYTES): 6.93
====================================================================================================================================================================================
…
