=====================================================================================================================================================================
Layer (type:depth-idx)                   Input Shape               Output Shape              Param #                   Param %                   Mult-Adds
=====================================================================================================================================================================
AcousticPredictor                        [4, 107, 240, 240]        [4, 1, 240, 240]          --                             --                   --
├─Sequential: 1-1                        [4, 1, 107, 240, 240]     [4, 1, 1, 240, 240]       --                             --                   --
│    └─Conv3d: 2-1                       [4, 1, 107, 240, 240]     [4, 1, 88, 240, 240]      21                         17.80%                   425,779,200
│    └─Conv3d: 2-2                       [4, 1, 88, 240, 240]      [4, 1, 69, 240, 240]      21                         17.80%                   333,849,600
│    └─Conv3d: 2-3                       [4, 1, 69, 240, 240]      [4, 1, 50, 240, 240]      21                         17.80%                   241,920,000
│    └─Conv3d: 2-4                       [4, 1, 50, 240, 240]      [4, 1, 31, 240, 240]      21                         17.80%                   149,990,400
│    └─Conv3d: 2-5                       [4, 1, 31, 240, 240]      [4, 1, 12, 240, 240]      21                         17.80%                   58,060,800
│    └─Conv3d: 2-6                       [4, 1, 12, 240, 240]      [4, 1, 1, 240, 240]       13                         11.02%                   2,995,200
│    └─Sigmoid: 2-7                      [4, 1, 1, 240, 240]       [4, 1, 1, 240, 240]       --                             --                   --
=====================================================================================================================================================================
Total params: 118
Trainable params: 118
Non-trainable params: 0
Total mult-adds (Units.GIGABYTES): 1.21
=====================================================================================================================================================================
…
