=====================================================================================================================================================================
Layer (type:depth-idx)                   Input Shape               Output Shape              Param #                   Param %                   Mult-Adds
=====================================================================================================================================================================
AcousticPredictor                        [4, 107, 240, 240]        [4, 240, 240]             --                             --                   --
├─Sequential: 1-1                        [4, 107, 240, 240]        [4, 1, 240, 240]          --                             --                   --
│    └─ConvBlock: 2-1                    [4, 107, 240, 240]        [4, 96, 240, 240]         --                             --                   --
│    │    └─Sequential: 3-1              [4, 107, 240, 240]        [4, 96, 240, 240]         92,736                     54.06%                   21,322,138,368
│    └─ConvBlock: 2-2                    [4, 96, 240, 240]         [4, 64, 240, 240]         --                             --                   --
│    │    └─Sequential: 3-2              [4, 96, 240, 240]         [4, 64, 240, 240]         55,488                     32.34%                   12,754,944,512
│    └─ConvBlock: 2-3                    [4, 64, 240, 240]         [4, 32, 240, 240]         --                             --                   --
│    │    └─Sequential: 3-3              [4, 64, 240, 240]         [4, 32, 240, 240]         18,528                     10.80%                   4,254,105,856
│    └─ConvBlock: 2-4                    [4, 32, 240, 240]         [4, 16, 240, 240]         --                             --                   --
│    │    └─Sequential: 3-4              [4, 32, 240, 240]         [4, 16, 240, 240]         4,656                       2.71%                   1,065,369,728
│    └─ConvBlock: 2-5                    [4, 16, 240, 240]         [4, 1, 240, 240]          --                             --                   --
│    │    └─Sequential: 3-5              [4, 16, 240, 240]         [4, 1, 240, 240]          147                         0.09%                   33,408,008
=====================================================================================================================================================================
Total params: 171,555
Trainable params: 171,555
Non-trainable params: 0
Total mult-adds (Units.GIGABYTES): 39.43
=====================================================================================================================================================================
…
