=====================================================================================================================================================================
Layer (type:depth-idx)                   Input Shape               Output Shape              Param #                   Param %                   Mult-Adds
=====================================================================================================================================================================
AcousticPredictor                        [365, 107, 240, 240]      [365, 1, 1, 240, 240]     --                             --                   --
├─Sequential: 1-1                        [365, 1, 107, 240, 240]   [365, 1, 1, 240, 240]     --                             --                   --
│    └─Conv3d: 2-1                       [365, 1, 107, 240, 240]   [365, 1, 88, 240, 240]    21                         17.80%                   38,852,352,000
│    └─Conv3d: 2-2                       [365, 1, 88, 240, 240]    [365, 1, 69, 240, 240]    21                         17.80%                   30,463,776,000
│    └─Conv3d: 2-3                       [365, 1, 69, 240, 240]    [365, 1, 50, 240, 240]    21                         17.80%                   22,075,200,000
│    └─Conv3d: 2-4                       [365, 1, 50, 240, 240]    [365, 1, 31, 240, 240]    21                         17.80%                   13,686,624,000
│    └─Conv3d: 2-5                       [365, 1, 31, 240, 240]    [365, 1, 12, 240, 240]    21                         17.80%                   5,298,048,000
│    └─Conv3d: 2-6                       [365, 1, 12, 240, 240]    [365, 1, 1, 240, 240]     13                         11.02%                   273,312,000
│    └─ReLU: 2-7                         [365, 1, 1, 240, 240]     [365, 1, 1, 240, 240]     --                             --                   --
=====================================================================================================================================================================
Total params: 118
Trainable params: 118
Non-trainable params: 0
Total mult-adds (Units.GIGABYTES): 110.65
=====================================================================================================================================================================
…
