…
======================================================================================================================================================================
Layer (type:depth-idx)                                  Input Shape               Output Shape              Param #                   Param %                   Mult-Adds
====================================================================================================================================================================================
ECS_classification                                      [4, 107, 240, 240]        [4, 2, 240, 240]          --                             --                   --
├─UNet: 1-1                                             [4, 107, 240, 240]        [4, 2, 240, 240]          --                             --                   --
│    └─ModuleList: 2-1                                  --                        --                        --                             --                   --
│    │    └─DoubleConv: 3-1                             [4, 107, 240, 240]        [4, 64, 240, 240]         98,752                      0.32%                   22,722,970,624
│    │    └─Down: 3-2                                   [4, 64, 240, 240]         [4, 128, 120, 120]        221,696                     0.71%                   12,754,946,048
│    │    └─Down: 3-3                                   [4, 128, 120, 120]        [4, 256, 60, 60]          885,760                     2.85%                   12,747,575,296
│    │    └─Down: 3-4                                   [4, 256, 60, 60]          [4, 512, 30, 30]          3,540,992                  11.39%                   12,743,892,992
│    │    └─Down: 3-5                                   [4, 512, 30, 30]          [4, 1024, 15, 15]         14,159,872                 45.53%                   12,742,057,984
│    │    └─Up: 3-6                                     [4, 1024, 15, 15]         [4, 512, 30, 30]          9,177,600                  29.51%                   33,035,681,792
│    │    └─Up: 3-7                                     [4, 512, 30, 30]          [4, 256, 60, 60]          2,295,040                   7.38%                   33,041,207,296
│    │    └─Up: 3-8                                     [4, 256, 60, 60]          [4, 128, 120, 120]        574,080                     1.85%                   33,052,264,448
│    │    └─Up: 3-9                                     [4, 128, 120, 120]        [4, 64, 240, 240]         143,680                     0.46%                   33,074,381,824
│    │    └─Conv2d: 3-10                                [4, 64, 240, 240]         [4, 2, 240, 240]          130                         0.00%                   29,952,000
====================================================================================================================================================================================
Total params: 31,097,602
Trainable params: 31,097,602
Non-trainable params: 0
Total mult-adds (Units.GIGABYTES): 205.94
====================================================================================================================================================================================
…
