=====================================================================================================================================================================
Layer (type:depth-idx)                   Input Shape               Output Shape              Param #                   Param %                   Mult-Adds
=====================================================================================================================================================================
AcousticPredictor                        [4, 107, 240, 240]        [4, 1, 240, 240]          --                             --                   --
├─Sequential: 1-1                        [4, 1, 107, 240, 240]     [4, 1, 1, 240, 240]       --                             --                   --
│    └─Conv3d: 2-1                       [4, 1, 107, 240, 240]     [4, 1, 105, 240, 240]     4                           1.89%                   96,768,000
│    └─Conv3d: 2-2                       [4, 1, 105, 240, 240]     [4, 1, 103, 240, 240]     4                           1.89%                   94,924,800
│    └─Conv3d: 2-3                       [4, 1, 103, 240, 240]     [4, 1, 101, 240, 240]     4                           1.89%                   93,081,600
│    └─Conv3d: 2-4                       [4, 1, 101, 240, 240]     [4, 1, 99, 240, 240]      4                           1.89%                   91,238,400
│    └─Conv3d: 2-5                       [4, 1, 99, 240, 240]      [4, 1, 97, 240, 240]      4                           1.89%                   89,395,200
│    └─Conv3d: 2-6                       [4, 1, 97, 240, 240]      [4, 1, 95, 240, 240]      4                           1.89%                   87,552,000
│    └─Conv3d: 2-7                       [4, 1, 95, 240, 240]      [4, 1, 93, 240, 240]      4                           1.89%                   85,708,800
│    └─Conv3d: 2-8                       [4, 1, 93, 240, 240]      [4, 1, 91, 240, 240]      4                           1.89%                   83,865,600
│    └─Conv3d: 2-9                       [4, 1, 91, 240, 240]      [4, 1, 89, 240, 240]      4                           1.89%                   82,022,400
│    └─Conv3d: 2-10                      [4, 1, 89, 240, 240]      [4, 1, 87, 240, 240]      4                           1.89%                   80,179,200
│    └─Conv3d: 2-11                      [4, 1, 87, 240, 240]      [4, 1, 85, 240, 240]      4                           1.89%                   78,336,000
│    └─Conv3d: 2-12                      [4, 1, 85, 240, 240]      [4, 1, 83, 240, 240]      4                           1.89%                   76,492,800
│    └─Conv3d: 2-13                      [4, 1, 83, 240, 240]      [4, 1, 81, 240, 240]      4                           1.89%                   74,649,600
│    └─Conv3d: 2-14                      [4, 1, 81, 240, 240]      [4, 1, 79, 240, 240]      4                           1.89%                   72,806,400
│    └─Conv3d: 2-15                      [4, 1, 79, 240, 240]      [4, 1, 77, 240, 240]      4                           1.89%                   70,963,200
│    └─Conv3d: 2-16                      [4, 1, 77, 240, 240]      [4, 1, 75, 240, 240]      4                           1.89%                   69,120,000
│    └─Conv3d: 2-17                      [4, 1, 75, 240, 240]      [4, 1, 73, 240, 240]      4                           1.89%                   67,276,800
│    └─Conv3d: 2-18                      [4, 1, 73, 240, 240]      [4, 1, 71, 240, 240]      4                           1.89%                   65,433,600
│    └─Conv3d: 2-19                      [4, 1, 71, 240, 240]      [4, 1, 69, 240, 240]      4                           1.89%                   63,590,400
│    └─Conv3d: 2-20                      [4, 1, 69, 240, 240]      [4, 1, 67, 240, 240]      4                           1.89%                   61,747,200
│    └─Conv3d: 2-21                      [4, 1, 67, 240, 240]      [4, 1, 65, 240, 240]      4                           1.89%                   59,904,000
│    └─Conv3d: 2-22                      [4, 1, 65, 240, 240]      [4, 1, 63, 240, 240]      4                           1.89%                   58,060,800
│    └─Conv3d: 2-23                      [4, 1, 63, 240, 240]      [4, 1, 61, 240, 240]      4                           1.89%                   56,217,600
│    └─Conv3d: 2-24                      [4, 1, 61, 240, 240]      [4, 1, 59, 240, 240]      4                           1.89%                   54,374,400
│    └─Conv3d: 2-25                      [4, 1, 59, 240, 240]      [4, 1, 57, 240, 240]      4                           1.89%                   52,531,200
│    └─Conv3d: 2-26                      [4, 1, 57, 240, 240]      [4, 1, 55, 240, 240]      4                           1.89%                   50,688,000
│    └─Conv3d: 2-27                      [4, 1, 55, 240, 240]      [4, 1, 53, 240, 240]      4                           1.89%                   48,844,800
│    └─Conv3d: 2-28                      [4, 1, 53, 240, 240]      [4, 1, 51, 240, 240]      4                           1.89%                   47,001,600
│    └─Conv3d: 2-29                      [4, 1, 51, 240, 240]      [4, 1, 49, 240, 240]      4                           1.89%                   45,158,400
│    └─Conv3d: 2-30                      [4, 1, 49, 240, 240]      [4, 1, 47, 240, 240]      4                           1.89%                   43,315,200
│    └─Conv3d: 2-31                      [4, 1, 47, 240, 240]      [4, 1, 45, 240, 240]      4                           1.89%                   41,472,000
│    └─Conv3d: 2-32                      [4, 1, 45, 240, 240]      [4, 1, 43, 240, 240]      4                           1.89%                   39,628,800
│    └─Conv3d: 2-33                      [4, 1, 43, 240, 240]      [4, 1, 41, 240, 240]      4                           1.89%                   37,785,600
│    └─Conv3d: 2-34                      [4, 1, 41, 240, 240]      [4, 1, 39, 240, 240]      4                           1.89%                   35,942,400
│    └─Conv3d: 2-35                      [4, 1, 39, 240, 240]      [4, 1, 37, 240, 240]      4                           1.89%                   34,099,200
│    └─Conv3d: 2-36                      [4, 1, 37, 240, 240]      [4, 1, 35, 240, 240]      4                           1.89%                   32,256,000
│    └─Conv3d: 2-37                      [4, 1, 35, 240, 240]      [4, 1, 33, 240, 240]      4                           1.89%                   30,412,800
│    └─Conv3d: 2-38                      [4, 1, 33, 240, 240]      [4, 1, 31, 240, 240]      4                           1.89%                   28,569,600
│    └─Conv3d: 2-39                      [4, 1, 31, 240, 240]      [4, 1, 29, 240, 240]      4                           1.89%                   26,726,400
│    └─Conv3d: 2-40                      [4, 1, 29, 240, 240]      [4, 1, 27, 240, 240]      4                           1.89%                   24,883,200
│    └─Conv3d: 2-41                      [4, 1, 27, 240, 240]      [4, 1, 25, 240, 240]      4                           1.89%                   23,040,000
│    └─Conv3d: 2-42                      [4, 1, 25, 240, 240]      [4, 1, 23, 240, 240]      4                           1.89%                   21,196,800
│    └─Conv3d: 2-43                      [4, 1, 23, 240, 240]      [4, 1, 21, 240, 240]      4                           1.89%                   19,353,600
│    └─Conv3d: 2-44                      [4, 1, 21, 240, 240]      [4, 1, 19, 240, 240]      4                           1.89%                   17,510,400
│    └─Conv3d: 2-45                      [4, 1, 19, 240, 240]      [4, 1, 17, 240, 240]      4                           1.89%                   15,667,200
│    └─Conv3d: 2-46                      [4, 1, 17, 240, 240]      [4, 1, 15, 240, 240]      4                           1.89%                   13,824,000
│    └─Conv3d: 2-47                      [4, 1, 15, 240, 240]      [4, 1, 13, 240, 240]      4                           1.89%                   11,980,800
│    └─Conv3d: 2-48                      [4, 1, 13, 240, 240]      [4, 1, 11, 240, 240]      4                           1.89%                   10,137,600
│    └─Conv3d: 2-49                      [4, 1, 11, 240, 240]      [4, 1, 9, 240, 240]       4                           1.89%                   8,294,400
│    └─Conv3d: 2-50                      [4, 1, 9, 240, 240]       [4, 1, 7, 240, 240]       4                           1.89%                   6,451,200
│    └─Conv3d: 2-51                      [4, 1, 7, 240, 240]       [4, 1, 5, 240, 240]       4                           1.89%                   4,608,000
│    └─Conv3d: 2-52                      [4, 1, 5, 240, 240]       [4, 1, 3, 240, 240]       4                           1.89%                   2,764,800
│    └─Conv3d: 2-53                      [4, 1, 3, 240, 240]       [4, 1, 1, 240, 240]       4                           1.89%                   921,600
│    └─Sigmoid: 2-54                     [4, 1, 1, 240, 240]       [4, 1, 1, 240, 240]       --                             --                   --
=====================================================================================================================================================================
Total params: 212
Trainable params: 212
Non-trainable params: 0
Total mult-adds (Units.GIGABYTES): 2.59
=====================================================================================================================================================================
…
