=====================================================================================================================================================================
Layer (type:depth-idx)                   Input Shape               Output Shape              Param #                   Param %                   Mult-Adds
=====================================================================================================================================================================
AutoEncoder                              [365, 107, 240, 240]      [365, 107, 240, 240]      171,555                    90.37%                   --
├─Sequential: 1-1                        [365, 107, 240, 240]      [365, 20, 60, 60]         --                             --                   --
│    └─Conv2d: 2-1                       [365, 107, 240, 240]      [365, 60, 240, 240]       6,480                       3.41%                   136,235,520,000
│    └─AvgPool2d: 2-2                    [365, 60, 240, 240]       [365, 60, 120, 120]       --                             --                   --
│    └─ReLU: 2-3                         [365, 60, 120, 120]       [365, 60, 120, 120]       --                             --                   --
│    └─Conv2d: 2-4                       [365, 60, 120, 120]       [365, 32, 120, 120]       1,952                       1.03%                   10,259,712,000
│    └─AvgPool2d: 2-5                    [365, 32, 120, 120]       [365, 32, 60, 60]         --                             --                   --
│    └─ReLU: 2-6                         [365, 32, 60, 60]         [365, 32, 60, 60]         --                             --                   --
│    └─Conv2d: 2-7                       [365, 32, 60, 60]         [365, 20, 60, 60]         660                         0.35%                   867,240,000
│    └─ReLU: 2-8                         [365, 20, 60, 60]         [365, 20, 60, 60]         --                             --                   --
├─Sequential: 1-2                        [365, 20, 60, 60]         [365, 107, 240, 240]      --                             --                   --
│    └─ConvTranspose2d: 2-9              [365, 20, 60, 60]         [365, 32, 60, 60]         672                         0.35%                   883,008,000
│    └─Upsample: 2-10                    [365, 32, 60, 60]         [365, 32, 120, 120]       --                             --                   --
│    └─ReLU: 2-11                        [365, 32, 120, 120]       [365, 32, 120, 120]       --                             --                   --
│    └─ConvTranspose2d: 2-12             [365, 32, 120, 120]       [365, 60, 120, 120]       1,980                       1.04%                   10,406,880,000
│    └─Upsample: 2-13                    [365, 60, 120, 120]       [365, 60, 240, 240]       --                             --                   --
│    └─ReLU: 2-14                        [365, 60, 240, 240]       [365, 60, 240, 240]       --                             --                   --
│    └─ConvTranspose2d: 2-15             [365, 60, 240, 240]       [365, 107, 240, 240]      6,527                       3.44%                   137,223,648,000
│    └─ReLU: 2-16                        [365, 107, 240, 240]      [365, 107, 240, 240]      --                             --                   --
=====================================================================================================================================================================
Total params: 189,826
Trainable params: 189,826
Non-trainable params: 0
Total mult-adds (Units.GIGABYTES): 295.88
=====================================================================================================================================================================
…
