=====================================================================================================================================================================
Layer (type:depth-idx)                   Input Shape               Output Shape              Param #                   Param %                   Mult-Adds
=====================================================================================================================================================================
AutoEncoder                              [365, 107, 220, 180]      [365, 107, 220, 180]      --                             --                   --
├─Sequential: 1-1                        [365, 107, 220, 180]      [365, 16, 55, 45]         --                             --                   --
│    └─Conv2d: 2-1                       [365, 107, 220, 180]      [365, 64, 220, 180]       61,696                     52.98%                   891,753,984,000
│    └─ReLU: 2-2                         [365, 64, 220, 180]       [365, 64, 220, 180]       --                             --                   --
│    └─MaxPool2d: 2-3                    [365, 64, 220, 180]       [365, 64, 110, 90]        --                             --                   --
│    └─Conv2d: 2-4                       [365, 64, 110, 90]        [365, 32, 110, 90]        18,464                     15.86%                   66,719,664,000
│    └─ReLU: 2-5                         [365, 32, 110, 90]        [365, 32, 110, 90]        --                             --                   --
│    └─MaxPool2d: 2-6                    [365, 32, 110, 90]        [365, 32, 55, 45]         --                             --                   --
│    └─Conv2d: 2-7                       [365, 32, 55, 45]         [365, 16, 55, 45]         4,624                       3.97%                   4,177,206,000
│    └─ReLU: 2-8                         [365, 16, 55, 45]         [365, 16, 55, 45]         --                             --                   --
├─Sequential: 1-2                        [365, 16, 55, 45]         [365, 107, 220, 180]      --                             --                   --
│    └─ConvTranspose2d: 2-9              [365, 16, 55, 45]         [365, 64, 110, 90]        4,160                       3.57%                   15,032,160,000
│    └─ReLU: 2-10                        [365, 64, 110, 90]        [365, 64, 110, 90]        --                             --                   --
│    └─ConvTranspose2d: 2-11             [365, 64, 110, 90]        [365, 107, 220, 180]      27,499                     23.62%                   397,470,546,000
│    └─Sigmoid: 2-12                     [365, 107, 220, 180]      [365, 107, 220, 180]      --                             --                   --
=====================================================================================================================================================================
Total params: 116,443
Trainable params: 116,443
Non-trainable params: 0
Total mult-adds (Units.TERABYTES): 1.38
=====================================================================================================================================================================
…
