=====================================================================================================================================================================
Layer (type:depth-idx)                   Input Shape               Output Shape              Param #                   Param %                   Mult-Adds
=====================================================================================================================================================================
AcousticPredictor                        [4, 107, 240, 240]        [4, 1, 240, 240]          --                             --                   --
├─Sequential: 1-1                        [4, 1, 107, 240, 240]     [4, 1, 1, 240, 240]       --                             --                   --
│    └─Conv3d: 2-1                       [4, 1, 107, 240, 240]     [4, 1, 103, 240, 240]     6                           3.75%                   142,387,200
│    └─Conv3d: 2-2                       [4, 1, 103, 240, 240]     [4, 1, 99, 240, 240]      6                           3.75%                   136,857,600
│    └─Conv3d: 2-3                       [4, 1, 99, 240, 240]      [4, 1, 95, 240, 240]      6                           3.75%                   131,328,000
│    └─Conv3d: 2-4                       [4, 1, 95, 240, 240]      [4, 1, 91, 240, 240]      6                           3.75%                   125,798,400
│    └─Conv3d: 2-5                       [4, 1, 91, 240, 240]      [4, 1, 87, 240, 240]      6                           3.75%                   120,268,800
│    └─Conv3d: 2-6                       [4, 1, 87, 240, 240]      [4, 1, 83, 240, 240]      6                           3.75%                   114,739,200
│    └─Conv3d: 2-7                       [4, 1, 83, 240, 240]      [4, 1, 79, 240, 240]      6                           3.75%                   109,209,600
│    └─Conv3d: 2-8                       [4, 1, 79, 240, 240]      [4, 1, 75, 240, 240]      6                           3.75%                   103,680,000
│    └─Conv3d: 2-9                       [4, 1, 75, 240, 240]      [4, 1, 71, 240, 240]      6                           3.75%                   98,150,400
│    └─Conv3d: 2-10                      [4, 1, 71, 240, 240]      [4, 1, 67, 240, 240]      6                           3.75%                   92,620,800
│    └─Conv3d: 2-11                      [4, 1, 67, 240, 240]      [4, 1, 63, 240, 240]      6                           3.75%                   87,091,200
│    └─Conv3d: 2-12                      [4, 1, 63, 240, 240]      [4, 1, 59, 240, 240]      6                           3.75%                   81,561,600
│    └─Conv3d: 2-13                      [4, 1, 59, 240, 240]      [4, 1, 55, 240, 240]      6                           3.75%                   76,032,000
│    └─Conv3d: 2-14                      [4, 1, 55, 240, 240]      [4, 1, 51, 240, 240]      6                           3.75%                   70,502,400
│    └─Conv3d: 2-15                      [4, 1, 51, 240, 240]      [4, 1, 47, 240, 240]      6                           3.75%                   64,972,800
│    └─Conv3d: 2-16                      [4, 1, 47, 240, 240]      [4, 1, 43, 240, 240]      6                           3.75%                   59,443,200
│    └─Conv3d: 2-17                      [4, 1, 43, 240, 240]      [4, 1, 39, 240, 240]      6                           3.75%                   53,913,600
│    └─Conv3d: 2-18                      [4, 1, 39, 240, 240]      [4, 1, 35, 240, 240]      6                           3.75%                   48,384,000
│    └─Conv3d: 2-19                      [4, 1, 35, 240, 240]      [4, 1, 31, 240, 240]      6                           3.75%                   42,854,400
│    └─Conv3d: 2-20                      [4, 1, 31, 240, 240]      [4, 1, 27, 240, 240]      6                           3.75%                   37,324,800
│    └─Conv3d: 2-21                      [4, 1, 27, 240, 240]      [4, 1, 23, 240, 240]      6                           3.75%                   31,795,200
│    └─Conv3d: 2-22                      [4, 1, 23, 240, 240]      [4, 1, 19, 240, 240]      6                           3.75%                   26,265,600
│    └─Conv3d: 2-23                      [4, 1, 19, 240, 240]      [4, 1, 15, 240, 240]      6                           3.75%                   20,736,000
│    └─Conv3d: 2-24                      [4, 1, 15, 240, 240]      [4, 1, 11, 240, 240]      6                           3.75%                   15,206,400
│    └─Conv3d: 2-25                      [4, 1, 11, 240, 240]      [4, 1, 7, 240, 240]       6                           3.75%                   9,676,800
│    └─Conv3d: 2-26                      [4, 1, 7, 240, 240]       [4, 1, 3, 240, 240]       6                           3.75%                   4,147,200
│    └─Conv3d: 2-27                      [4, 1, 3, 240, 240]       [4, 1, 1, 240, 240]       4                           2.50%                   921,600
│    └─Sigmoid: 2-28                     [4, 1, 1, 240, 240]       [4, 1, 1, 240, 240]       --                             --                   --
=====================================================================================================================================================================
Total params: 160
Trainable params: 160
Non-trainable params: 0
Total mult-adds (Units.GIGABYTES): 1.91
=====================================================================================================================================================================
…
